{"arg_nodes": [0, 1, 2, 5, 6, 11, 12, 14], "nodes": [{"inputs": [], "op": "null", "name": "data"}, {"inputs": [], "attrs": {"num_filter": "1", "kernel": "(4, 4)"}, "op": "null", "name": "conv1_weight"}, {"inputs": [], "attrs": {"num_filter": "1", "kernel": "(4, 4)"}, "op": "null", "name": "conv1_bias"}, {"inputs": [[0, 0, 0], [1, 0, 0], [2, 0, 0]], "attrs": {"num_filter": "1", "kernel": "(4, 4)"}, "op": "Convolution", "name": "conv1"}, {"inputs": [[3, 0, 0]], "attrs": {"act_type": "relu"}, "op": "Activation", "name": "act1"}, {"inputs": [], "attrs": {"num_filter": "1", "kernel": "(4, 4)"}, "op": "null", "name": "conv2_weight"}, {"inputs": [], "attrs": {"num_filter": "1", "kernel": "(4, 4)"}, "op": "null", "name": "conv2_bias"}, {"inputs": [[4, 0, 0], [5, 0, 0], [6, 0, 0]], "attrs": {"num_filter": "1", "kernel": "(4, 4)"}, "op": "Convolution", "name": "conv2"}, {"inputs": [[7, 0, 0]], "attrs": {"act_type": "relu"}, "op": "Activation", "name": "act2"}, {"inputs": [[8, 0, 0]], "attrs": {"pool_type": "sum", "kernel": "(4, 4)"}, "op": "Pooling", "name": "pool1"}, {"inputs": [[9, 0, 0]], "op": "Flatten", "name": "flatten1"}, {"inputs": [], "attrs": {"num_hidden": "4"}, "op": "null", "name": "fullyconnected0_weight"}, {"inputs": [], "attrs": {"num_hidden": "4"}, "op": "null", "name": "fullyconnected0_bias"}, {"inputs": [[10, 0, 0], [11, 0, 0], [12, 0, 0]], "attrs": {"num_hidden": "4"}, "op": "FullyConnected", "name": "fullyconnected0"}, {"inputs": [], "op": "null", "name": "softmaxoutput1_label"}, {"inputs": [[13, 0, 0], [14, 0, 0]], "op": "SoftmaxOutput", "name": "softmaxoutput1"}], "heads": [[15, 0, 0]], "attrs": {"mxnet_version": ["int", 10000]}, "node_row_ptr": [0, 1, 2, 3, 4, 5, 6, 7, 8, 9, 10, 11, 12, 13, 14, 15, 16]}